{    
  "layers_config": {"class_name": "Sequential", "config": {"name": "sequential_7", "layers": [{"class_name": "InputLayer", "config": {"batch_input_shape": [null, 28, 28, 3], "dtype": "float32", "sparse": false, "ragged": false, "name": "rescaling_4_input"}}, {"class_name": "Rescaling", "config": {"name": "rescaling_4", "trainable": true, "dtype": "float32", "scale": 0.00784313725490196, "offset": -1}}, {"class_name": "Flatten", "config": {"name": "flatten_4", "trainable": true, "dtype": "float32", "batch_input_shape": [null, 28, 28, 3], "data_format": "channels_last"}}, {"class_name": "Dense", "config": {"name": "dense_28", "trainable": true, "dtype": "float32", "units": 16, "activation": "leaky_relu", "use_bias": true, "kernel_initializer": {"class_name": "GlorotUniform", "config": {"seed": null}}, "bias_initializer": {"class_name": "Zeros", "config": {}}, "kernel_regularizer": null, "bias_regularizer": null, "activity_regularizer": null, "kernel_constraint": null, "bias_constraint": null}}, {"class_name": "Dense", "config": {"name": "dense_29", "trainable": true, "dtype": "float32", "units": 14, "activation": "leaky_relu", "use_bias": true, "kernel_initializer": {"class_name": "GlorotUniform", "config": {"seed": null}}, "bias_initializer": {"class_name": "Zeros", "config": {}}, "kernel_regularizer": null, "bias_regularizer": null, "activity_regularizer": null, "kernel_constraint": null, "bias_constraint": null}}, {"class_name": "Dense", "config": {"name": "dense_30", "trainable": true, "dtype": "float32", "units": 10, "activation": "leaky_relu", "use_bias": true, "kernel_initializer": {"class_name": "GlorotUniform", "config": {"seed": null}}, "bias_initializer": {"class_name": "Zeros", "config": {}}, "kernel_regularizer": null, "bias_regularizer": null, "activity_regularizer": null, "kernel_constraint": null, "bias_constraint": null}}, {"class_name": "Dense", "config": {"name": "dense_31", "trainable": true, "dtype": "float32", "units": 8, "activation": "leaky_relu", "use_bias": true, "kernel_initializer": {"class_name": "GlorotUniform", "config": {"seed": null}}, "bias_initializer": {"class_name": "Zeros", "config": {}}, "kernel_regularizer": null, "bias_regularizer": null, "activity_regularizer": null, "kernel_constraint": null, "bias_constraint": null}}, {"class_name": "Dense", "config": {"name": "dense_32", "trainable": true, "dtype": "float32", "units": 10, "activation": "leaky_relu", "use_bias": true, "kernel_initializer": {"class_name": "GlorotUniform", "config": {"seed": null}}, "bias_initializer": {"class_name": "Zeros", "config": {}}, "kernel_regularizer": null, "bias_regularizer": null, "activity_regularizer": null, "kernel_constraint": null, "bias_constraint": null}}, {"class_name": "Dense", "config": {"name": "dense_33", "trainable": true, "dtype": "float32", "units": 14, "activation": "leaky_relu", "use_bias": true, "kernel_initializer": {"class_name": "GlorotUniform", "config": {"seed": null}}, "bias_initializer": {"class_name": "Zeros", "config": {}}, "kernel_regularizer": null, "bias_regularizer": null, "activity_regularizer": null, "kernel_constraint": null, "bias_constraint": null}}, {"class_name": "Dense", "config": {"name": "dense_34", "trainable": true, "dtype": "float32", "units": 16, "activation": "leaky_relu", "use_bias": true, "kernel_initializer": {"class_name": "GlorotUniform", "config": {"seed": null}}, "bias_initializer": {"class_name": "Zeros", "config": {}}, "kernel_regularizer": null, "bias_regularizer": null, "activity_regularizer": null, "kernel_constraint": null, "bias_constraint": null}}, {"class_name": "Dense", "config": {"name": "dense_35", "trainable": true, "dtype": "float32", "units": 20, "activation": "linear", "use_bias": true, "kernel_initializer": {"class_name": "GlorotUniform", "config": {"seed": null}}, "bias_initializer": {"class_name": "Zeros", "config": {}}, "kernel_regularizer": null, "bias_regularizer": null, "activity_regularizer": null, "kernel_constraint": null, "bias_constraint": null}}]}, "keras_version": "2.11.0", "backend": "tensorflow"},
  "weight_b64": "…",
  "training_traits": {"structure_gen": "Reflection", "n_layers": 7, "max_nodes": 16, "activation_func": "LeakyReLU", "epoch_num": 100},
  "classes_name": ["Friendship Bracelets by Alexis Andr", "Chromie Squiggle by Snowfro", "Flowers by RVig", "Neogen Space Monkeys by Dalek x Generative Artworks", "Transitions by Jason Ting x Matt Bilfield", "The Family Mooks by Mr. Kaves", "Paper Armada by Kjetil Golid", "Kai-Gen by Takeshi Murata, Christopher Rutledge, J. Krispy", "Scoundrels by Kristy Glas", "OnChainChain by Rizzle, Sebi, Miguelgarest", "Color Study by Jeff Davis", "Cryptoblots by Dam Aggott-Hnsch", "geVIENNAratives by CryptoWiener", "Apparitions by Aaron Penne", "Endless (5,607,250 to Infinity) by Modnar Wolf x NumbersInMotion", "Sliderverse by Che-Yu Wu x White Castle", "9dcc ITERATION-02 by null", "Agents Brown and Knows by Mr. Kaves", "Rinascita by Stefano Contiero", "Cells by Hevey"]
}